…
   "cell_type": "code",
   "execution_count": 6,
   "metadata": {},
   "outputs": [
    {
     "name": "stdout",
     "output_type": "stream",
     "text": [
      "Model: \"model\"\n",
      "_________________________________________________________________\n",
      "Layer (type)                 Output Shape              Param #   \n",
      "=================================================================\n",
      "cov_input (InputLayer)       [(None, 1001, 1)]         0         \n",
      "_________________________________________________________________\n",
      "conv1d (Conv1D)              (None, 990, 16)           208       \n",
      "_________________________________________________________________\n",
      "activation (Activation)      (None, 990, 16)           0         \n",
      "_________________________________________________________________\n",
      "max_pooling1d (MaxPooling1D) (None, 82, 16)            0         \n",
      "_________________________________________________________________\n",
      "dropout (Dropout)            (None, 82, 16)            0         \n",
      "_________________________________________________________________\n",
      "flatten (Flatten)            (None, 1312)              0         \n",
      "_________________________________________________________________\n",
      "dense (Dense)                (None, 32)                42016     \n",
      "_________________________________________________________________\n",
      "activation_1 (Activation)    (None, 32)                0         \n",
      "_________________________________________________________________\n",
      "dropout_1 (Dropout)          (None, 32)                0         \n",
      "_________________________________________________________________\n",
      "dense_1 (Dense)              (None, 1)                 33        \n",
      "=================================================================\n",
      "Total params: 42,257\n",
      "Trainable params: 42,257\n",
      "Non-trainable params: 0\n",
      "_________________________________________________________________\n",
      "None\n"
     ]
    }
   ],
   "source": [
    "print(model.summary())"
   ]
  },
  {
   "cell_type": "code",
   "execution_count": 7,
…
