…
   "cell_type": "code",
   "execution_count": 36,
   "metadata": {},
   "outputs": [
    {
     "name": "stdout",
     "output_type": "stream",
     "text": [
      "Model: \"model_10\"\n",
      "_________________________________________________________________\n",
      "Layer (type)                 Output Shape              Param #   \n",
      "=================================================================\n",
      "cov_input (InputLayer)       [(None, 1001, 1)]         0         \n",
      "_________________________________________________________________\n",
      "conv1d_10 (Conv1D)           (None, 990, 32)           416       \n",
      "_________________________________________________________________\n",
      "activation_20 (Activation)   (None, 990, 32)           0         \n",
      "_________________________________________________________________\n",
      "max_pooling1d_10 (MaxPooling (None, 82, 32)            0         \n",
      "_________________________________________________________________\n",
      "dropout_20 (Dropout)         (None, 82, 32)            0         \n",
      "_________________________________________________________________\n",
      "flatten_10 (Flatten)         (None, 2624)              0         \n",
      "_________________________________________________________________\n",
      "dense_20 (Dense)             (None, 64)                168000    \n",
      "_________________________________________________________________\n",
      "activation_21 (Activation)   (None, 64)                0         \n",
      "_________________________________________________________________\n",
      "dropout_21 (Dropout)         (None, 64)                0         \n",
      "_________________________________________________________________\n",
      "dense_21 (Dense)             (None, 1)                 65        \n",
      "=================================================================\n",
      "Total params: 168,481\n",
      "Trainable params: 168,481\n",
      "Non-trainable params: 0\n",
      "_________________________________________________________________\n",
      "None\n"
     ]
    }
   ],
   "source": [
    "print(model.summary())"
   ]
  },
  {
   "cell_type": "code",
   "execution_count": 7,
…
