…
      "Layer (type)                    Output Shape         Param #     Connected to                     \n",
      "==================================================================================================\n",
      "seq_input (InputLayer)          [(None, 201, 4)]     0                                            \n",
      "__________________________________________________________________________________________________\n",
      "cov_input (InputLayer)          [(None, 201, 1)]     0                                            \n",
      "__________________________________________________________________________________________________\n",
      "conv1d (Conv1D)                 (None, 196, 32)      800         seq_input[0][0]                  \n",
      "__________________________________________________________________________________________________\n",
      "conv1d_1 (Conv1D)               (None, 196, 32)      224         cov_input[0][0]                  \n",
      "__________________________________________________________________________________________________\n",
      "group_normalization (GroupNorma (None, 196, 32)      64          conv1d[0][0]                     \n",
      "__________________________________________________________________________________________________\n",
      "group_normalization_1 (GroupNor (None, 196, 32)      64          conv1d_1[0][0]                   \n",
      "__________________________________________________________________________________________________\n",
      "activation (Activation)         (None, 196, 32)      0           group_normalization[0][0]        \n",
      "__________________________________________________________________________________________________\n",
      "activation_2 (Activation)       (None, 196, 32)      0           group_normalization_1[0][0]      \n",
      "__________________________________________________________________________________________________\n",
      "max_pooling1d (MaxPooling1D)    (None, 32, 32)       0           activation[0][0]                 \n",
      "__________________________________________________________________________________________________\n",
      "max_pooling1d_1 (MaxPooling1D)  (None, 32, 32)       0           activation_2[0][0]               \n",
      "__________________________________________________________________________________________________\n",
      "dropout (Dropout)               (None, 32, 32)       0           max_pooling1d[0][0]              \n",
      "__________________________________________________________________________________________________\n",
      "dropout_2 (Dropout)             (None, 32, 32)       0           max_pooling1d_1[0][0]            \n",
      "__________________________________________________________________________________________________\n",
      "flatten (Flatten)               (None, 1024)         0           dropout[0][0]                    \n",
      "__________________________________________________________________________________________________\n",
      "flatten_1 (Flatten)             (None, 1024)         0           dropout_2[0][0]                  \n",
      "__________________________________________________________________________________________________\n",
      "dense (Dense)                   (None, 64)           65600       flatten[0][0]                    \n",
      "__________________________________________________________________________________________________\n",
      "dense_1 (Dense)                 (None, 64)           65600       flatten_1[0][0]                  \n",
      "__________________________________________________________________________________________________\n",
      "activation_1 (Activation)       (None, 64)           0           dense[0][0]                      \n",
      "__________________________________________________________________________________________________\n",
      "activation_3 (Activation)       (None, 64)           0           dense_1[0][0]                    \n",
      "__________________________________________________________________________________________________\n",
      "dropout_1 (Dropout)             (None, 64)           0           activation_1[0][0]               \n",
      "__________________________________________________________________________________________________\n",
      "dropout_3 (Dropout)             (None, 64)           0           activation_3[0][0]               \n",
      "__________________________________________________________________________________________________\n",
      "concatenate (Concatenate)       (None, 128)          0           dropout_1[0][0]                  \n",
      "                                                                 dropout_3[0][0]                  \n",
      "__________________________________________________________________________________________________\n",
      "dense_2 (Dense)                 (None, 1)            129         concatenate[0][0]                \n",
      "==================================================================================================\n",
      "Total params: 132,481\n",
      "Trainable params: 132,481\n",
      "Non-trainable params: 0\n",
      "__________________________________________________________________________________________________\n"
     ]
    }
   ],
   "source": [
…
