…
    "    lr_scheduler.step()\n",
    "    print(epoch,'/',num_epochs)"
   ]
  },
  {
   "cell_type": "markdown",
   "metadata": {},
   "source": [
    "# Evaluation"
   ]
  },
  {
   "cell_type": "code",
   "execution_count": 18,
   "metadata": {
    "ExecuteTime": {
     "end_time": "2019-10-28T11:35:15.482795Z",
     "start_time": "2019-10-28T11:35:15.466580Z"
    }
   },
   "outputs": [
    {
     "data": {
      "text/plain": [
       "MaskRCNN(\n",
       "  (transform): GeneralizedRCNNTransform()\n",
       "  (backbone): BackboneWithFPN(\n",
       "    (body): IntermediateLayerGetter(\n",
       "      (conv1): Conv2d(3, 64, kernel_size=(7, 7), stride=(2, 2), padding=(3, 3), bias=False)\n",
       "      (bn1): FrozenBatchNorm2d()\n",
       "      (relu): ReLU(inplace=True)\n",
       "      (maxpool): MaxPool2d(kernel_size=3, stride=2, padding=1, dilation=1, ceil_mode=False)\n",
       "      (layer1): Sequential(\n",
       "        (0): Bottleneck(\n",
       "          (conv1): Conv2d(64, 64, kernel_size=(1, 1), stride=(1, 1), bias=False)\n",
       "          (bn1): FrozenBatchNorm2d()\n",
       "          (conv2): Conv2d(64, 64, kernel_size=(3, 3), stride=(1, 1), padding=(1, 1), bias=False)\n",
       "          (bn2): FrozenBatchNorm2d()\n",
       "          (conv3): Conv2d(64, 256, kernel_size=(1, 1), stride=(1, 1), bias=False)\n",
       "          (bn3): FrozenBatchNorm2d()\n",
       "          (relu): ReLU(inplace=True)\n",
       "          (downsample): Sequential(\n",
       "            (0): Conv2d(64, 256, kernel_size=(1, 1), stride=(1, 1), bias=False)\n",
       "            (1): FrozenBatchNorm2d()\n",
       "          )\n",
       "        )\n",
       "        (1): Bottleneck(\n",
       "          (conv1): Conv2d(256, 64, kernel_size=(1, 1), stride=(1, 1), bias=False)\n",
       "          (bn1): FrozenBatchNorm2d()\n",
       "          (conv2): Conv2d(64, 64, kernel_size=(3, 3), stride=(1, 1), padding=(1, 1), bias=False)\n",
       "          (bn2): FrozenBatchNorm2d()\n",
       "          (conv3): Conv2d(64, 256, kernel_size=(1, 1), stride=(1, 1), bias=False)\n",
       "          (bn3): FrozenBatchNorm2d()\n",
       "          (relu): ReLU(inplace=True)\n",
       "        )\n",
       "        (2): Bottleneck(\n",
       "          (conv1): Conv2d(256, 64, kernel_size=(1, 1), stride=(1, 1), bias=False)\n",
       "          (bn1): FrozenBatchNorm2d()\n",
       "          (conv2): Conv2d(64, 64, kernel_size=(3, 3), stride=(1, 1), padding=(1, 1), bias=False)\n",
       "          (bn2): FrozenBatchNorm2d()\n",
       "          (conv3): Conv2d(64, 256, kernel_size=(1, 1), stride=(1, 1), bias=False)\n",
       "          (bn3): FrozenBatchNorm2d()\n",
       "          (relu): ReLU(inplace=True)\n",
       "        )\n",
       "      )\n",
       "      (layer2): Sequential(\n",
       "        (0): Bottleneck(\n",
       "          (conv1): Conv2d(256, 128, kernel_size=(1, 1), stride=(1, 1), bias=False)\n",
       "          (bn1): FrozenBatchNorm2d()\n",
       "          (conv2): Conv2d(128, 128, kernel_size=(3, 3), stride=(2, 2), padding=(1, 1), bias=False)\n",
       "          (bn2): FrozenBatchNorm2d()\n",
       "          (conv3): Conv2d(128, 512, kernel_size=(1, 1), stride=(1, 1), bias=False)\n",
       "          (bn3): FrozenBatchNorm2d()\n",
       "          (relu): ReLU(inplace=True)\n",
       "          (downsample): Sequential(\n",
       "            (0): Conv2d(256, 512, kernel_size=(1, 1), stride=(2, 2), bias=False)\n",
       "            (1): FrozenBatchNorm2d()\n",
       "          )\n",
       "        )\n",
       "        (1): Bottleneck(\n",
       "          (conv1): Conv2d(512, 128, kernel_size=(1, 1), stride=(1, 1), bias=False)\n",
       "          (bn1): FrozenBatchNorm2d()\n",
       "          (conv2): Conv2d(128, 128, kernel_size=(3, 3), stride=(1, 1), padding=(1, 1), bias=False)\n",
       "          (bn2): FrozenBatchNorm2d()\n",
       "          (conv3): Conv2d(128, 512, kernel_size=(1, 1), stride=(1, 1), bias=False)\n",
       "          (bn3): FrozenBatchNorm2d()\n",
       "          (relu): ReLU(inplace=True)\n",
       "        )\n",
       "        (2): Bottleneck(\n",
       "          (conv1): Conv2d(512, 128, kernel_size=(1, 1), stride=(1, 1), bias=False)\n",
       "          (bn1): FrozenBatchNorm2d()\n",
       "          (conv2): Conv2d(128, 128, kernel_size=(3, 3), stride=(1, 1), padding=(1, 1), bias=False)\n",
       "          (bn2): FrozenBatchNorm2d()\n",
       "          (conv3): Conv2d(128, 512, kernel_size=(1, 1), stride=(1, 1), bias=False)\n",
       "          (bn3): FrozenBatchNorm2d()\n",
       "          (relu): ReLU(inplace=True)\n",
       "        )\n",
       "        (3): Bottleneck(\n",
       "          (conv1): Conv2d(512, 128, kernel_size=(1, 1), stride=(1, 1), bias=False)\n",
       "          (bn1): FrozenBatchNorm2d()\n",
       "          (conv2): Conv2d(128, 128, kernel_size=(3, 3), stride=(1, 1), padding=(1, 1), bias=False)\n",
       "          (bn2): FrozenBatchNorm2d()\n",
       "          (conv3): Conv2d(128, 512, kernel_size=(1, 1), stride=(1, 1), bias=False)\n",
       "          (bn3): FrozenBatchNorm2d()\n",
       "          (relu): ReLU(inplace=True)\n",
       "        )\n",
       "      )\n",
       "      (layer3): Sequential(\n",
       "        (0): Bottleneck(\n",
       "          (conv1): Conv2d(512, 256, kernel_size=(1, 1), stride=(1, 1), bias=False)\n",
       "          (bn1): FrozenBatchNorm2d()\n",
       "          (conv2): Conv2d(256, 256, kernel_size=(3, 3), stride=(2, 2), padding=(1, 1), bias=False)\n",
       "          (bn2): FrozenBatchNorm2d()\n",
       "          (conv3): Conv2d(256, 1024, kernel_size=(1, 1), stride=(1, 1), bias=False)\n",
       "          (bn3): FrozenBatchNorm2d()\n",
       "          (relu): ReLU(inplace=True)\n",
       "          (downsample): Sequential(\n",
       "            (0): Conv2d(512, 1024, kernel_size=(1, 1), stride=(2, 2), bias=False)\n",
       "            (1): FrozenBatchNorm2d()\n",
       "          )\n",
       "        )\n",
       "        (1): Bottleneck(\n",
       "          (conv1): Conv2d(1024, 256, kernel_size=(1, 1), stride=(1, 1), bias=False)\n",
       "          (bn1): FrozenBatchNorm2d()\n",
       "          (conv2): Conv2d(256, 256, kernel_size=(3, 3), stride=(1, 1), padding=(1, 1), bias=False)\n",
       "          (bn2): FrozenBatchNorm2d()\n",
       "          (conv3): Conv2d(256, 1024, kernel_size=(1, 1), stride=(1, 1), bias=False)\n",
       "          (bn3): FrozenBatchNorm2d()\n",
       "          (relu): ReLU(inplace=True)\n",
       "        )\n",
       "        (2): Bottleneck(\n",
       "          (conv1): Conv2d(1024, 256, kernel_size=(1, 1), stride=(1, 1), bias=False)\n",
       "          (bn1): FrozenBatchNorm2d()\n",
       "          (conv2): Conv2d(256, 256, kernel_size=(3, 3), stride=(1, 1), padding=(1, 1), bias=False)\n",
       "          (bn2): FrozenBatchNorm2d()\n",
       "          (conv3): Conv2d(256, 1024, kernel_size=(1, 1), stride=(1, 1), bias=False)\n",
       "          (bn3): FrozenBatchNorm2d()\n",
       "          (relu): ReLU(inplace=True)\n",
       "        )\n",
       "        (3): Bottleneck(\n",
       "          (conv1): Conv2d(1024, 256, kernel_size=(1, 1), stride=(1, 1), bias=False)\n",
       "          (bn1): FrozenBatchNorm2d()\n",
       "          (conv2): Conv2d(256, 256, kernel_size=(3, 3), stride=(1, 1), padding=(1, 1), bias=False)\n",
       "          (bn2): FrozenBatchNorm2d()\n",
       "          (conv3): Conv2d(256, 1024, kernel_size=(1, 1), stride=(1, 1), bias=False)\n",
       "          (bn3): FrozenBatchNorm2d()\n",
       "          (relu): ReLU(inplace=True)\n",
       "        )\n",
       "        (4): Bottleneck(\n",
       "          (conv1): Conv2d(1024, 256, kernel_size=(1, 1), stride=(1, 1), bias=False)\n",
       "          (bn1): FrozenBatchNorm2d()\n",
       "          (conv2): Conv2d(256, 256, kernel_size=(3, 3), stride=(1, 1), padding=(1, 1), bias=False)\n",
       "          (bn2): FrozenBatchNorm2d()\n",
       "          (conv3): Conv2d(256, 1024, kernel_size=(1, 1), stride=(1, 1), bias=False)\n",
       "          (bn3): FrozenBatchNorm2d()\n",
       "          (relu): ReLU(inplace=True)\n",
       "        )\n",
       "        (5): Bottleneck(\n",
       "          (conv1): Conv2d(1024, 256, kernel_size=(1, 1), stride=(1, 1), bias=False)\n",
       "          (bn1): FrozenBatchNorm2d()\n",
       "          (conv2): Conv2d(256, 256, kernel_size=(3, 3), stride=(1, 1), padding=(1, 1), bias=False)\n",
       "          (bn2): FrozenBatchNorm2d()\n",
       "          (conv3): Conv2d(256, 1024, kernel_size=(1, 1), stride=(1, 1), bias=False)\n",
       "          (bn3): FrozenBatchNorm2d()\n",
       "          (relu): ReLU(inplace=True)\n",
       "        )\n",
       "      )\n",
       "      (layer4): Sequential(\n",
       "        (0): Bottleneck(\n",
       "          (conv1): Conv2d(1024, 512, kernel_size=(1, 1), stride=(1, 1), bias=False)\n",
       "          (bn1): FrozenBatchNorm2d()\n",
       "          (conv2): Conv2d(512, 512, kernel_size=(3, 3), stride=(2, 2), padding=(1, 1), bias=False)\n",
       "          (bn2): FrozenBatchNorm2d()\n",
       "          (conv3): Conv2d(512, 2048, kernel_size=(1, 1), stride=(1, 1), bias=False)\n",
       "          (bn3): FrozenBatchNorm2d()\n",
       "          (relu): ReLU(inplace=True)\n",
       "          (downsample): Sequential(\n",
       "            (0): Conv2d(1024, 2048, kernel_size=(1, 1), stride=(2, 2), bias=False)\n",
       "            (1): FrozenBatchNorm2d()\n",
       "          )\n",
       "        )\n",
       "        (1): Bottleneck(\n",
       "          (conv1): Conv2d(2048, 512, kernel_size=(1, 1), stride=(1, 1), bias=False)\n",
       "          (bn1): FrozenBatchNorm2d()\n",
       "          (conv2): Conv2d(512, 512, kernel_size=(3, 3), stride=(1, 1), padding=(1, 1), bias=False)\n",
       "          (bn2): FrozenBatchNorm2d()\n",
       "          (conv3): Conv2d(512, 2048, kernel_size=(1, 1), stride=(1, 1), bias=False)\n",
       "          (bn3): FrozenBatchNorm2d()\n",
       "          (relu): ReLU(inplace=True)\n",
       "        )\n",
       "        (2): Bottleneck(\n",
       "          (conv1): Conv2d(2048, 512, kernel_size=(1, 1), stride=(1, 1), bias=False)\n",
       "          (bn1): FrozenBatchNorm2d()\n",
       "          (conv2): Conv2d(512, 512, kernel_size=(3, 3), stride=(1, 1), padding=(1, 1), bias=False)\n",
       "          (bn2): FrozenBatchNorm2d()\n",
       "          (conv3): Conv2d(512, 2048, kernel_size=(1, 1), stride=(1, 1), bias=False)\n",
       "          (bn3): FrozenBatchNorm2d()\n",
       "          (relu): ReLU(inplace=True)\n",
       "        )\n",
       "      )\n",
       "    )\n",
       "    (fpn): FeaturePyramidNetwork(\n",
       "      (inner_blocks): ModuleList(\n",
       "        (0): Conv2d(256, 256, kernel_size=(1, 1), stride=(1, 1))\n",
       "        (1): Conv2d(512, 256, kernel_size=(1, 1), stride=(1, 1))\n",
       "        (2): Conv2d(1024, 256, kernel_size=(1, 1), stride=(1, 1))\n",
       "        (3): Conv2d(2048, 256, kernel_size=(1, 1), stride=(1, 1))\n",
       "      )\n",
       "      (layer_blocks): ModuleList(\n",
       "        (0): Conv2d(256, 256, kernel_size=(3, 3), stride=(1, 1), padding=(1, 1))\n",
       "        (1): Conv2d(256, 256, kernel_size=(3, 3), stride=(1, 1), padding=(1, 1))\n",
       "        (2): Conv2d(256, 256, kernel_size=(3, 3), stride=(1, 1), padding=(1, 1))\n",
       "        (3): Conv2d(256, 256, kernel_size=(3, 3), stride=(1, 1), padding=(1, 1))\n",
       "      )\n",
       "      (extra_blocks): LastLevelMaxPool()\n",
       "    )\n",
       "  )\n",
       "  (rpn): RegionProposalNetwork(\n",
       "    (anchor_generator): AnchorGenerator()\n",
       "    (head): RPNHead(\n",
       "      (conv): Conv2d(256, 256, kernel_size=(3, 3), stride=(1, 1), padding=(1, 1))\n",
       "      (cls_logits): Conv2d(256, 3, kernel_size=(1, 1), stride=(1, 1))\n",
       "      (bbox_pred): Conv2d(256, 12, kernel_size=(1, 1), stride=(1, 1))\n",
       "    )\n",
       "  )\n",
       "  (roi_heads): RoIHeads(\n",
       "    (box_roi_pool): MultiScaleRoIAlign()\n",
       "    (box_head): TwoMLPHead(\n",
       "      (fc6): Linear(in_features=12544, out_features=1024, bias=True)\n",
       "      (fc7): Linear(in_features=1024, out_features=1024, bias=True)\n",
       "    )\n",
       "    (box_predictor): FastRCNNPredictor(\n",
       "      (cls_score): Linear(in_features=1024, out_features=2, bias=True)\n",
       "      (bbox_pred): Linear(in_features=1024, out_features=8, bias=True)\n",
       "    )\n",
       "    (mask_roi_pool): MultiScaleRoIAlign()\n",
       "    (mask_head): MaskRCNNHeads(\n",
       "      (mask_fcn1): Conv2d(256, 256, kernel_size=(3, 3), stride=(1, 1), padding=(1, 1))\n",
       "      (relu1): ReLU(inplace=True)\n",
       "      (mask_fcn2): Conv2d(256, 256, kernel_size=(3, 3), stride=(1, 1), padding=(1, 1))\n",
       "      (relu2): ReLU(inplace=True)\n",
       "      (mask_fcn3): Conv2d(256, 256, kernel_size=(3, 3), stride=(1, 1), padding=(1, 1))\n",
       "      (relu3): ReLU(inplace=True)\n",
       "      (mask_fcn4): Conv2d(256, 256, kernel_size=(3, 3), stride=(1, 1), padding=(1, 1))\n",
       "      (relu4): ReLU(inplace=True)\n",
       "    )\n",
       "    (mask_predictor): MaskRCNNPredictor(\n",
       "      (conv5_mask): ConvTranspose2d(256, 256, kernel_size=(2, 2), stride=(2, 2))\n",
       "      (relu): ReLU(inplace=True)\n",
       "      (mask_fcn_logits): Conv2d(256, 2, kernel_size=(1, 1), stride=(1, 1))\n",
       "    )\n",
       "  )\n",
       ")"
      ]
     },
     "execution_count": 18,
     "metadata": {},
     "output_type": "execute_result"
    }
   ],
   "source": [
    "for param in model_ft.parameters():\n",
    "    param.requires_grad = False\n",
    "\n",
    "model_ft.eval()"
   ]
  },
  {
   "cell_type": "code",
   "execution_count": null,
…
